HW4_BA/colmap_parameters.npz (npz, 4852 bytes, 3 tensors)

theta f4 [5, 3]
-0.09071414 0.16189547 0.07937963 -0.107454 0.16137986 0.100864485 -0.11239611 0.37875247
0.16000015 -0.16944759 0.6130802 0.24713182 0.0 0.0 0.0
00000000: 56c8 b9bd edc7 253e ca91 a23d d810 dcbd
00000010: c340 253e 0a92 ce3d ef2f e6bd d8eb c13e
00000020: 14d7 233e ab83 2dbe d3f2 1c3f 2010 7d3e
00000030: 0000 0000 0000 0000 0000 0000

trans f4 [5, 3]
-0.012841432 -0.0061662467 0.02194077 -0.026801847 -0.009070737 0.02138128 -0.04195537 -0.014693502
0.025800329 -0.06535285 -0.019637538 0.036395155 0.0 0.0 0.0
00000000: df64 52bc 3a0e cabb 21bd b33c 8c8f dbbc
00000010: 6e9d 14bc cb27 af3c 65d9 2bbd 04bd 70bc
00000020: 365b d33c b7d7 85bd e7de a0bc 1613 153d
00000030: 0000 0000 0000 0000 0000 0000

key3d f4 [332, 3]
0.011507755 -0.027011793 0.0579166 0.011373987 -0.02616989 0.058072064 0.036688343 -0.03430985
0.085599534 0.03204149 -0.032058198 0.09072158 0.022219783 -0.03100392 0.09581149 0.030378638
-0.031061884 0.09226121 0.040247817 -0.029371975 0.08506991 0.019512212 -0.0074471915 0.049505062
0.019900281 -0.017402118 0.058623254 0.025944842 -0.027836457 0.09617447 0.0441916 -0.027065182
0.081946544 0.023084702 -0.026951969 0.09779054 0.026133204 -0.027207768 0.09641095 -0.0147224385
-0.02219091 0.11375929 0.027781516 -0.02284299 0.097496 0.02372722 -0.02217735 0.09972925
0.02400059 -0.021140745 0.100206375 0.024757154 -0.021145856 0.09981224 0.02443748 -0.021078302
0.09992602 0.024851924 -0.020317696 0.10017646 0.024851924 -0.020317696 0.10017646 0.035805937
-0.02076396 0.093196124 0.025751319 -0.020250339 0.09974102 0.025702674 -0.019972755 0.099876545
0.04066937 -0.019327432 0.08800909 0.026020424 -0.017897893 0.100667916 0.042948708 -0.017549904
0.087812185 0.025503626 -0.016533455 0.10166342 0.024942944 -0.014094615 0.10303797 0.025013998
-0.013354198 0.103354596 0.029441755 -0.013557845 0.10084979 0.029441755 -0.013557845 0.10084979
0.042343434 -0.01219241 0.08917365 0.02627325 -0.010745318 0.1038835 0.02627325 -0.010745318
0.1038835 0.025337143 -0.01000635 0.104542844 0.025337143 -0.01000635 0.104542844 0.042996183
-0.010596385 0.089769416 0.03459938 -0.010080345 0.098764144 0.035482723 -0.0100575145 0.098283306
0.03478018 -0.009740767 0.0989556 0.03478018 -0.009740767 0.0989556 0.028311225 -0.008487293
0.10381804 0.044341393 -0.009234349 0.08978446 0.026450371 -0.008105344 0.104876354 0.035732046
-0.008666563 0.09867662 0.034278467 -0.008016733 0.10010736 0.034278467 -0.008016733 0.10010736
0.043169335 -0.008056339 0.09046612 0.03616698 -0.007239335 0.098828085 0.03616698 -0.007239335
0.098828085 0.028625468 -0.006208131 0.10465917 0.03746592 -0.0068354215 0.09781462 0.025916914
-0.005382569 0.106362045 0.028666278 -0.005041293 0.105032615 0.033781547 -0.0050918637 0.101533465
0.033015512 -0.004708151 0.10226403 0.031528547 -0.0043330104 0.10369088 0.028058132 -0.0030817955
0.10619789 0.027180035 -0.0026692338 0.106868684 0.045347635 -0.004141671 0.0908887 0.03343385
-0.0028694961 0.10297339 0.030918777 -0.0024140275 0.104871936 0.027509 -0.001486877 0.10739288
0.03512118 -0.0017830945 0.10192805 0.031511486 -0.0012691682 0.10485708 0.037597645 -0.0018679155
0.10005592 0.029432476 -0.000788366 0.10661209 0.037474684 -0.001481847 0.100114346 0.030725798
-6.7804605e-05 0.10611776 0.031266008 -9.143119e-05 0.10572346 0.031988338 -0.00012133245 0.10500797
0.032551326 -0.00015064806 0.10457406 0.03296673 -0.00019405145 0.104464814 0.03296673 -0.00019405145
0.104464814 0.045391344 -0.001193349 0.09162634 0.046105966 -0.0006587707 0.0915422 0.032313988
0.0010276441 0.10547461 0.03306544 0.0009840349 0.104725115 0.027905801 0.0017224251 0.10860969
0.034662247 0.0008839601 0.10348844 0.04647578 -3.3777076e-05 0.09141538 0.03243163 0.0018026918
0.10572532 0.029879779 0.002384294 0.10771585 0.032345116 0.002213216 0.10577583 0.046343975
00000000: 068b 3c3c d647 ddbc f539 6d3d f659 3a3c
00000010: 3d62 d6bc f9dc 6d3d 8446 163d 7c88 0cbd
00000020: cf4e af3d f03d 033d 754f 03bd 3ccc b93d
00000030: 4306 b63c effb fdbc d138 c43d 9fdc f83c
00000040: 7e75 febc 72f3 bc3d e5da 243d 7f9d f0bc
00000050: 2239 ae3d 13d8 9f3c 9207 f4bb d2c5 4a3d
00000060: ea05 a33c e38e 8ebc f01e 703d 478a d43c
00000070: 4809 e4bc 1ff7 c43d 4002 353d cdb7 ddbc
00000080: 97d3 a73d 211c bd3c 60ca dcbc 6846 c83d
00000090: 4d15 d63c d3e2 debc 1b73 c53d 6236 71bc
000000a0: b6c9 b5bc a1fa e83d 1096 e33c 3921 bbbc
000000b0: fcab c73d 965f c23c 46ad b5bc d93e cc3d
000000c0: e39c c43c 5b2f adbc 0039 cd3d 84cf ca3c
000000d0: 133a adbc 5c6a cc3d 1c31 c83c 67ac acbc
000000e0: 03a6 cc3d 4396 cb3c 4c71 a6bc 5129 cd3d
000000f0: 4396 cb3c 4c71 a6bc 5129 cd3d 3fa9 123d
00000100: 2e19 aabc 9cdd be3d 6ef4 d23c 0ae4 a5bc
00000110: 0545 cc3d 6a8e d23c e79d a3bc 138c cc3d
00000120: ed94 263d 9054 9ebc 1c3e b43d c928 d53c
00000130: 9a9e 92bc fb2a ce3d fcea 2f3d d1c4 8fbc
00000140: e0d6 b33d fbec d03c 2b71 87bc e934 d03d
00000150: 2555 cc3c 1aed 66bc 9205 d33d 28ea cc3c
00000160: 91cb 5abc 93ab d33d d62f f13c b921 5ebc
00000170: 568a ce3d d62f f13c b921 5ebc 568a ce3d
00000180: 4f70 2d3d adc2 47bc ada0 b63d 003b d73c
00000190: 210d 30bc dfc0 d43d 003b d73c 210d 30bc
000001a0: dfc0 d43d d78f cf3c adf1 23bc 8f1a d63d
000001b0: d78f cf3c adf1 23bc 8f1a d63d c41c 303d
000001c0: 769c 2dbc 07d9 b73d 14b8 0d3d 0828 25bc
000001d0: db44 ca3d 5556 113d 46c8 24bc c248 c93d
000001e0: a975 0e3d bd97 1fbc 3ca9 ca3d a975 0e3d
000001f0: bd97 1fbc 3ca9 ca3d f1ec e73c 490e 0bbc
00000200: 8d9e d43d 529f 353d ab4b 17bc eae0 b73d
00000210: 73ae d83c 47cc 04bc 6ac9 d63d c45b 123d
00000220: 33fe 0dbc f816 ca3d 9467 0c3d 9e58 03bc
00000230: 1605 cd3d 9467 0c3d 9e58 03bc 1605 cd3d
00000240: 54d2 303d bcfe 03bc 4d46 b93d d423 143d
00000250: f237 edbb 6166 ca3d d423 143d f237 edbb
00000260: 6166 ca3d f57f ea3c 946d cbbb 8c57 d63d
00000270: dd75 193d acfb dfbb 0853 c83d b54f d43c
00000280: 4360 b0bb 58d4 d93d 8bd5 ea3c 6e31 a5bb
00000290: 571b d73d 855e 0a3d a6d9 a6bb c7f0 cf3d
000002a0: 463b 073d d546 9abb ce6f d13d 1424 013d
000002b0: edfb 8dbb e25b d43d 2bda e53c f3f7 49bb
000002c0: 487e d93d aaa8 de3c 50ee 2ebb f8dd da3d
000002d0: 71be 393d dbb6 87bb db23 ba3d eff1 083d
000002e0: 280e 3cbb b6e3 d23d 6049 fd3c a934 1ebb
000002f0: 19c7 d63d 8e5a e13c 50e3 c2ba ccf0 db3d
00000300: 3adb 0f3d b9b6 e9ba a7bf d03d 3012 013d
00000310: 385a a6ba 4fbf d63d fdff 193d d8d4 f4ba
00000320: 1eea cc3d 601c f13c 59aa 4eba 7057 da3d
00000330: 0e7f 193d 893a c2ba c008 cd3d abb4 fb3c
00000340: 5232 8eb8 4554 d93d c910 003d bfbe bfb8
00000350: 8b85 d83d 3406 033d dd73 feb8 6b0e d73d
00000360: 8a54 053d 48f7 1db9 ed2a d63d 1f08 073d
00000370: 4a7a 4bb9 a6f1 d53d 1f08 073d 4a7a 4bb9
00000380: a6f1 d53d 46ec 393d 266a 9cba 97a6 bb3d
00000390: 9cd9 3c3d 5ab1 2cba 7a7a bb3d ac5b 043d
000003a0: 04b2 863a 1303 d83d a06f 073d bbfa 803a
000003b0: 1f7a d63d b59a e43c ffc2 e13a c26e de3d
000003c0: 00fa 0d3d 8fb9 673a bff1 d33d 635d 3e3d
000003d0: dcab 0db8 fd37 bb3d 07d7 043d 4d48 ec3a
000003e0: 8486 d83d 70c6 f43c d141 1c3b 219a dc3d
000003f0: 507c 043d 9a0b 113b 00a1 d83d 2ed3 3d3d
