HW4_BA/loftr_parameters.npz (npz, 4888 bytes, 3 tensors)

theta f4 [5, 3, 3]
000000 03 42 67 3f a0 77 9f bb 71 95 db 3e 4f ab 38 3d
       0.903351 -0.0048665553 0.42887452 0.045085248
000010 57 d7 7e 3f 61 5a ab bd 9b 61 da be 53 64 c2 3d
       0.9954733 -0.08366848 -0.42652592 0.094917916
000020 65 44 66 3f 7e fc 26 3f 32 33 69 3c 85 01 42 3f
       0.8994811 0.6522902 0.014233397 0.7578357
000030 b2 ef 38 3d 46 50 7f 3f 36 e7 6b bd 13 b2 41 bf
       0.045150466 0.9973186 -0.057593547 -0.75662345
000040 ab 03 93 3d c0 5f 26 3f cb b0 95 3e 1d 7f 51 bc
       0.07178434 0.6498985 0.29236445 -0.012786654
000050 f0 ca 74 3f 27 8f 0c bc 35 f5 7f 3f 8d 03 83 3c
       0.9562216 -0.008579052 0.9998353 0.015992904
000060 04 ce 74 bf 69 03 53 bc 19 9c 95 3e 3f 93 34 3e
       -0.95626855 -0.012879231 0.29220656 0.17634295
000070 1f f4 aa bd 99 14 7b 3f bc 4e 17 bd 25 c1 7e 3f
       -0.08347344 0.98078305 -0.03694032 0.99513465
000080 bb 0e bb 3d 87 cf 7b bf 56 5f 56 bd fd 89 30 3e
       0.09133669 -0.98363537 -0.052337013 0.17240138
000090 00 00 80 3f 00 00 00 00 00 00 00 00 00 00 00 00
       1.0 0.0 0.0 0.0
0000a0 00 00 80 3f 00 00 00 00 00 00 00 00 00 00 00 00
       1.0 0.0 0.0 0.0
0000b0 00 00 80 3f
       1.0

trans f4 [5, 3]
000000 7f 90 d7 be 0c 97 37 3a 37 82 54 3e a6 55 53 bf
       -0.4210243 0.0007003404 0.20752798 -0.82552564
000010 1f d5 c2 3b 30 5b ef 3e 96 a7 69 bf af 07 5c bd
       0.005945816 0.46749258 -0.9127134 -0.053718265
000020 78 d7 40 3f be 0e 7a bf df c5 2f be b4 17 24 3f
       0.7532878 -0.97678745 -0.17165326 0.6409867
000030 00 00 00 00 00 00 00 00 00 00 00 00
       0.0 0.0 0.0

key3d f4 [325, 3]
000000 96 38 06 bf dd f3 e6 be fd 77 74 3f ea 40 04 bf
       -0.52430093 -0.45107928 0.9549559 -0.5166155
000010 d1 cc e2 be 65 be 75 3f 30 6a 0a bf 22 e1 dc be
       -0.44296888 0.95993644 -0.5406828 -0.43140513
000020 88 60 72 3f 70 5f 04 bf 48 6f de be 96 ea 75 3f
       0.94678545 -0.51708126 -0.43444276 0.96061075
000030 6f a9 db be e2 92 e1 be 22 b4 82 3f c5 77 0a bf
       -0.42902705 -0.44057375 1.0211222 -0.54089004
000040 d2 e9 d3 be 89 7a 72 3f 0f 8b 08 bf 9a a4 d4 be
       -0.41389328 0.94718224 -0.53337187 -0.4153183
000050 26 30 74 3f 88 df db be b1 39 dd be c0 c5 82 3f
       0.9538597 -0.42943978 -0.43208078 1.0216599
000060 05 7e 04 bf 58 2e d1 be f9 89 76 3f 16 8e 04 bf
       -0.5175479 -0.4085567 0.9630428 -0.51779306
000070 36 09 cd be 59 ea 76 3f 38 98 e8 be 65 09 d2 be
       -0.4004609 0.96451336 -0.45428634 -0.41022792
000080 c0 f1 80 3f 50 38 c3 be de 68 d8 be 08 6a 87 3f
       1.0073776 -0.381289 -0.42267507 1.0579233
000090 14 9b 0e bf 4c dd c5 be 94 c1 70 3f 5e a2 04 bf
       -0.5570538 -0.386454 0.94045377 -0.5181025
0000a0 95 9e c8 be 1a 2f 77 3f 14 6a ae be 0a 79 d7 be
       -0.39183488 0.96556246 -0.34065306 -0.42084533
0000b0 6e 68 8b 3f f4 d8 a5 be 15 5c d9 be ce fc 8c 3f
       1.0891244 -0.32392085 -0.42453066 1.101465
0000c0 33 93 00 bf 7d 43 c5 be 60 f2 79 3f ed 0c a6 be
       -0.5022461 -0.38528052 0.9763546 -0.32431737
0000d0 3b ce d4 be 5f 29 8d 3f 4d ad 02 bf ed 71 c0 be
       -0.4156359 1.102825 -0.51045686 -0.37586918
0000e0 21 f1 78 3f 0e 87 d8 be 08 69 c7 be 77 2a 84 3f
       0.97242934 -0.4229054 -0.3894732 1.0325459
0000f0 9e ff a1 be 58 03 d1 be ec 20 8e 3f e8 25 49 be
       -0.31640333 -0.40822864 1.1103797 -0.19643366
000100 93 1a dc be 63 ce 99 3f 58 66 d0 be 48 2e c4 be
       -0.42989025 1.2016109 -0.40703082 -0.3831656
000110 a5 b3 85 3f 05 6f bb be a9 2f c8 be be 90 89 3f
       1.0445448 -0.3660814 -0.39098862 1.0747297
000120 52 a4 aa be a6 14 cb be 4b 9e 8c 3f 3e 5f 88 be
       -0.3332849 -0.3966419 1.0985807 -0.26635164
000130 93 2e d1 be d7 07 93 3f 42 40 76 be 2a 88 d3 be
       -0.40855846 1.1486768 -0.2404795 -0.41314822
000140 d1 d4 95 3f 80 b2 49 be ba 74 d7 be 39 ef 99 3f
       1.1705571 -0.19696999 -0.42081243 1.202613
000150 cc 6b 38 be 5f fd d8 be 0d ff 9b 3f a1 7b f1 be
       -0.18009871 -0.42380807 1.218721 -0.47164634
000160 bc 88 ba be ef 16 80 3f 0f 1c e5 be b0 a7 bc be
       -0.36432445 1.0006999 -0.4474797 -0.36846685
000170 de 38 82 3f f6 90 d0 be f9 ec bf be 7c d0 85 3f
       1.0173604 -0.40735596 -0.37485483 1.0454249
000180 0d a4 bb be b1 9f c3 be 3d b0 89 3f 08 a0 88 be
       -0.36648598 -0.38207772 1.0756909 -0.26684594
000190 ac 74 cc be 66 49 93 3f b7 7f 53 be 03 f9 d1 be
       -0.39932764 1.1506774 -0.20654188 -0.41010293
0001a0 f6 34 99 3f 00 64 4a be 29 d1 d2 be 0e 13 9a 3f
       1.1969287 -0.1976471 -0.41175202 1.2037065
0001b0 0f 4e 38 be 10 8c d4 be 73 05 9c 3f e5 d7 08 bf
       -0.17998527 -0.4151311 1.2189163 -0.5345443
0001c0 16 b3 b1 be df 82 75 3f 5f ab f1 be 34 fe b5 be
       -0.34706944 0.9590282 -0.47201058 -0.35545504
0001d0 d9 3e 80 3f 55 d4 d4 be 64 c4 ba be 5b 34 85 3f
       1.001918 -0.41568246 -0.3647796 1.0406603
0001e0 cc 05 bc be 17 ba be be 7e bf 89 3f 4e 98 a2 be
       -0.36723173 -0.3725135 1.0761564 -0.31756824
0001f0 43 67 c3 be 16 a1 8e 3f 74 c1 88 be 5b d8 c7 be
       -0.3816472 1.114291 -0.26710093 -0.39032254
000200 ed 74 93 3f 39 7b 84 be 6b 9b c8 be 5e 52 94 3f
       1.1520058 -0.2587526 -0.39181075 1.1587636
000210 22 14 80 be bb 78 c9 be 16 28 95 3f 9d 5a 65 be
       -0.2501536 -0.39349923 1.1652858 -0.22397847
000220 48 d6 cb be b2 97 97 3f ac c3 53 be 8d 6d cd be
       -0.3981192 1.1843169 -0.20680112 -0.40122643
000230 53 6a 99 3f 10 fe 4a be 51 5e ce be 52 43 9a 3f
       1.1985573 -0.1982348 -0.40306333 1.2051795
000240 67 a2 26 be c0 7c d1 be 60 d0 9d 3f 0f e8 08 bf
       -0.16272889 -0.4091549 1.2329216 -0.53479093
000250 98 20 ad be fd c6 75 3f ca 04 b8 be a3 31 bb be
       -0.3381393 0.9600676 -0.35941154 -0.36561307
000260 ed d6 8a 3f 03 d7 a2 be 5f d9 be be 61 9c 8e 3f
       1.084684 -0.31804666 -0.37275216 1.1141473
000270 4e 03 89 be 40 34 c3 be 6e 96 93 3f c5 5c 80 be
       -0.26760334 -0.381258 1.1530282 -0.25070778
000280 57 cd c4 be 72 54 95 3f 07 19 78 be ff 7a c5 be
       -0.38437912 1.1666396 -0.24228297 -0.385704
000290 f5 36 96 3f 8c 0a 6f be 67 97 c6 be 86 0a 97 3f
       1.1735522 -0.23343867 -0.38787386 1.1800086
0002a0 0e 4f 54 be 40 ca c8 be 62 88 99 3f 05 5b 4b be
       -0.20733282 -0.39216805 1.1994746 -0.1985894
0002b0 8b 78 c9 be 1d 74 9a 3f ee c8 ed be 77 2b ae be
       -0.3934978 1.2066685 -0.4644236 -0.34017536
0002c0 88 3e 81 3f d8 e7 b7 be a5 af b6 be e2 e2 8a 3f
       1.0097208 -0.3591907 -0.3568088 1.0850489
0002d0 bb d6 b3 be 83 98 b7 be 58 99 8b 3f d5 24 a3 be
       -0.35124764 -0.35858545 1.0906172 -0.31864038
0002e0 ae f1 b9 be d6 c8 8e 3f 82 e6 9e be 5f db ba be
       -0.363172 1.115504 -0.31035239 -0.36495492
0002f0 34 96 8f 3f e1 78 80 be d9 45 c0 be 21 82 95 3f
       1.1217713 -0.25092223 -0.3755329 1.1680337
000300 4f 4c 6f be 46 d2 c1 be f9 39 97 3f dd 08 55 be
       -0.23368953 -0.37855738 1.1814567 -0.20804162
000310 79 00 c4 be 36 a3 99 3f d1 ec ed be 34 ab a9 be
       -0.3828161 1.2002933 -0.4646974 -0.3313843
000320 78 42 81 3f 56 9c e1 be 7d 5c ab be 7f 6e 83 3f
       1.009841 -0.44064587 -0.33469 1.0268096
000330 85 29 b8 be 8f 47 b2 be 4a ef 8a 3f 22 03 b4 be
       -0.35969177 -0.3482022 1.0854275 -0.3515864
000340 06 19 b3 be f4 b4 8b 3f 64 bc 80 be 00 6e bb be
       -0.3498003 1.0914598 -0.2514373 -0.3660736
000350 e6 a8 95 3f 8a a2 78 be 37 40 bc be 5b 7a 96 3f
       1.1692169 -0.24280754 -0.36767742 1.175609
000360 65 83 6f be 89 2a bd be ad 4d 97 3f ed 54 5e be
       -0.23389967 -0.36946514 1.182058 -0.21712084
000370 14 a7 be be 1a 0b 99 3f 0e 0b 01 bf e1 4a a2 be
       -0.37236845 1.1956513 -0.50407493 -0.31697753
000380 d8 96 7b 3f 41 6e b8 be 15 a9 ad be 10 1e 8b 3f
       0.98277044 -0.36021617 -0.33918062 1.0868549
000390 d5 40 79 be 6f bc b7 be 5d ab 96 3f ec 0d 70 be
       -0.24341138 -0.3588595 1.1771046 -0.23442811
0003a0 f1 a6 b8 be 62 76 97 3f de 16 07 bf f4 13 9c be
       -0.36064866 1.1833003 -0.5276927 -0.30483973
0003b0 9b d3 77 3f f1 4b c9 be c5 55 a6 be f2 1f 88 3f
       0.9680726 -0.3931575 -0.32487312 1.0634749
0003c0 49 b1 a3 be 7f 5b ac be 44 3a 8f 3f 50 7f 92 be
       -0.31971195 -0.33663556 1.1189656 -0.28612757
0003d0 a3 28 af be b5 76 92 3f 14 2d 81 be d6 8a b2 be
       -0.3421069 1.1442477 -0.25229704 -0.34871548
0003e0 48 de 95 3f dc a5 79 be d5 33 b3 be 8f d1 96 3f
       1.170846 -0.24379677 -0.35000482 1.1782702
0003f0 a7 35 ee be ae 9c 9c be 08 96 81 3f e0 e2 e1 be
       -0.46525308 -0.30588287 1.0123911 -0.44118404
